checkpoint.pt (torch, 23334 bytes, 6 tensors)

fc1.weight f4 [64, 10]
-0.0023675263 0.16963837 -0.26026973 -0.23272435 -0.1217965 0.08479881 -0.0062654912 0.25073364
-0.028063327 0.08367783 -0.095568165 -0.06215942 -0.30210772 -0.20943199 -0.13035639 0.01171422
0.12501597 0.18974385 -0.2143838 -0.13770543 0.045594044 0.20411147 -0.12298818 0.16716069
-0.13763918 0.10616437 0.07478944 -0.32316455 -0.20567703 -0.29934895 -0.123265564 0.27322105
-0.2049724 -0.14557004 -0.2209295 -0.2961666 -0.18459494 0.27182874 0.14110664 0.1532669
0.016630918 -0.16212475 0.05350089 -0.2952602 -0.22849551 -0.1630249 0.19952008 0.18541107
-0.14024544 -0.011410266 0.121560164 0.23105958 0.043025944 -0.02076847 0.179748 -0.19816682
-0.19379067 -0.42224208 -0.5136826 -0.3403803 0.082148634 0.055144824 -0.26602295 0.032536257
0.1437478 0.026044035 0.0428517 0.10278679 0.011630222 0.35850912 -0.29524505 -0.16367082
0.086192094 0.24658027 0.29395843 0.19552262 -0.16823362 -0.33444303 -0.13406855 -0.4160484
-0.29470977 0.280966 0.2404469 -0.31544605 0.05918899 -0.05327174 -0.05203882 -0.14475544
0.12160733 -0.18730281 0.11174696 0.15791322 0.21862383 0.095436215 -0.35573068 -0.23839018
0.19116738 0.08593443 -0.2754397 -0.16107371 0.2900892 0.20567809 -0.14528504 -0.08699158
-0.30863976 -0.01289036 -0.2453446 -0.2511307 -0.02463044 0.040273614 -0.19418155 0.12590136
-0.24354531 0.259735 0.22144365 -0.48581564 -0.38574347 -0.07614378 -0.11284344 -0.1028731
0.12409672 0.018942088 -0.15429662 0.1496355 -0.30334112 -0.1874303 -0.07916126 -0.15403877
-0.110627025 -0.25918713 -0.07395579 0.06090637 -0.21270083 -0.022917956 0.21968265 -0.037047144
0.0022936764 -0.03455055 0.05705034 0.19400686 0.2789935 0.18483432 0.28256667 -0.05266697
-0.34549677 -0.14180318 0.20908797 -0.038917255 -0.246962 -0.19265941 -0.2959424 -0.26689884
-0.064142615 0.1734212 0.17096573 -0.30498013 0.19725719 -0.24745122 -0.06685381 -0.1282217
-0.060910285 -0.062089026 -0.28376698 -0.27304304 -0.04948315 0.0040895045 -0.14365433 0.11912274
-0.28462344 -0.021341354 0.23767874 -0.16107921 0.25609276 0.068188354 -0.3650494 0.044085037
-0.0053377883 -0.2952343 0.28357863 -0.36790296 -0.023177302 -0.12045101 0.17814247 0.06251495
0.16876078 -0.06129904 -0.30948865 -0.18204547 -0.4424288 -0.050056566 0.28488797 0.24520314
-0.2064139 0.0032350293 -0.283666 -0.20268257 -0.24515378 -0.1972967 -0.24918206 -0.23193961
0.013303101 0.20384768 -0.23904291 -0.21709423 -0.1836213 0.22133836 -0.11367281 0.26673457
0.11435035 0.04004267 -0.002353996 -0.0625124 0.03967595 -0.072208926 -0.002221942 0.04034847
-0.24735497 -0.1657449 0.25535163 -0.25663358 -0.034980964 0.30685627 0.109656274 -0.008203085
-0.32912073 0.018035803 -0.20556897 -0.09501073 0.009661965 0.03616989 -0.06450865 0.19367994
-0.021901157 0.23819338 0.17463236 -0.25217915 -0.0012684157 -0.25024027 -0.13481838 -0.11382354
0.043580115 0.16901436 -0.17643766 -0.060822267 0.13696851 -0.21217997 0.08619536 -0.34475788
-0.23419403 -0.19929041 -0.16654861 0.041796148 0.26149467 -0.09243955 -0.18774256 -0.11695331
00000000: 8028 1bbb aeb5 2d3e 1342 85be 4b4f 6ebe
00000010: 7270 f9bd 00ab ad3d c04e cdbb 2960 803e
00000020: 10e5 e5bc 485f ab3d 3eb9 c3bd e09a 7ebd
00000030: ddad 9abe 5775 56be 257c 05be 00ed 3f3c
00000040: 3004 003e 364c 423e 6d87 5bbe a702 0dbe
00000050: d2c0 3a3d 9902 513e 3ae1 fbbd 2c2c 2b3e
00000060: 49f1 0cbe b56c d93d 352b 993d d375 a5be
00000070: 009d 52be 4444 99be a872 fcbd a1e3 8b3e
00000080: 49e4 51be 5010 15be 583b 62be 26a3 97be
00000090: 7506 3dbe 232d 8b3e 427e 103e 00f2 1c3e
000000a0: 903d 883c 0804 26be c023 5b3d 582c 97be
000000b0: bafa 69be 00f0 26be fe4e 4c3e 66dc 3d3e
000000c0: 809c 0fbe 20f2 3abc 89f4 f83d e29a 6c3e
000000d0: f93b 303d a322 aabc dc0f 383e 3eec 4abe
000000e0: 1071 46be 1d30 d8be b480 03bf 5446 aebe
000000f0: 8b3d a83d 8adf 613d 2934 88be bd44 053d
00000100: a032 133e 4d5a d53c 4485 2f3d e181 d23d
00000110: b08c 3e3c 828e b73e 5c2a 97be 5399 27be
00000120: 7b85 b03d 8a7f 7c3e b881 963e 1537 483e
00000130: 6f45 2cbe 1e3c abbe 4449 09be 4c04 d5be
00000140: 33e4 96be c7da 8f3e b637 763e 2582 a1be
00000150: 2870 723d 7833 5abd a826 55bd c53a 14be
00000160: 440d f93d 4fcc 3fbe 97db e43d 01b4 213e
00000170: edde 5f3e 1074 c33d 5522 b6be 8e1c 74be
00000180: 62c1 433e 64fe af3d 6f06 8dbe 82f0 24be
00000190: 9286 943e 479d 523e 9ac5 14be a428 b2bd
000001a0: 0806 9ebe 1732 53bc 9d3b 7bbe 3494 80be
000001b0: c7c5 c9bc f2f5 243d 87d7 46be 49ec 003e
000001c0: f163 79be fcfb 843e 20c2 623e d4bc f8be
000001d0: 2b80 c5be 45f1 9bbd 761a e7bd 22af d2bd
000001e0: 6c26 fe3d 702c 9b3c efff 1dbe 0c3a 193e
000001f0: 874f 9bbe bbed 3fbe 4c1f a2bd 57bc 1dbe
00000200: 6c90 e2bd 2db4 84be 2276 97bd f578 793d
00000210: 3fce 59be 70be bbbc 7df4 603e bfbe 17bd
00000220: 8151 163b e184 0dbd 9ead 693d bca9 463e
00000230: 3cd8 8e3e 3545 3d3e 94ac 903e 52b9 57bd
00000240: f4e4 b0be da34 11be 281b 563e b367 1fbd
00000250: 9be3 7cbe 8248 45be c385 97be f7a6 88be
00000260: 345d 83bd 5495 313e a411 2f3e 5b26 9cbe
00000270: cafd 493e da63 7dbe a6ea 88bd 8d4c 03be
00000280: 107d 79bd 1051 7ebd e849 91be 4ccc 8bbe
00000290: d8ae 4abd 4001 863b 1f1a 13be a0f6 f33d
000002a0: 2aba 91be 10d4 aebc 0e62 733e f3f1 24be
000002b0: 971e 833e 56a6 8b3d c1e7 babe 8392 343d
000002c0: 9de8 aebb f328 97be 3831 913e c75d bcbe
000002d0: 53de bdbc 05af f6bd fb6a 363e d707 803d
000002e0: a0cf 2c3e b414 7bbd 4c75 9ebe 216a 3abe
000002f0: 0786 e2be 1d08 4dbd d6dc 913e 8816 7b3e
00000300: 2a5e 53be c902 543b ac3c 91be 058c 4fbe
00000310: 9809 7bbe 2508 4abe 9529 7fbe 9481 6dbe
00000320: 40f5 593c 72bd 503e aac7 74be f34d 5ebe
00000330: 3907 3cbe 86a6 623e 4acd e8bd 6f91 883e
00000340: 8430 ea3d c803 243d 8045 1abb 8006 80bd
00000350: 4083 223d 46e2 93bd 009e 11bb 7044 253d
00000360: 9f4a 7dbe 08b9 29be 73bd 823e 7a65 83be
00000370: 3348 0fbd 441c 9d3e 7893 e03d 3b66 06bc
00000380: 8382 a8be d2bf 933c ac80 52be fc94 c2bd
00000390: 384d 1e3c e126 143d 1c1d 84bd 0954 463e
000003a0: 0e6a b3bc f7e8 733e d3d2 323e a01d 81be
000003b0: f840 a6ba 7e1f 80be d40d 0abe 511c e9bd
000003c0: 1081 323d 1a12 2d3e 13ac 34be c520 79bd
000003d0: 7941 0c3e b545 59be 3187 b03d 1b84 b0be
000003e0: 8fd0 6fbe c912 4cbe b88b 2abe 7032 2b3d
000003f0: a1e2 853e f250 bdbd 963f 40be 3885 efbd

fc1.bias f4 [64]
-0.18724269 0.045368075 0.099959835 0.022390157 -0.2050262 0.5489222 0.42920774 0.0164213
-0.2515618 0.0700759 0.16481157 -0.45313936 0.26564488 -0.22430344 0.048029196 -0.14259316
0.051118344 0.059469998 -0.3484661 -0.0041635414 -0.079280525 -0.068577886 0.3644432 -0.38185084
0.45329922 0.29738352 0.16095065 0.24553129 -0.0973845 0.25455138 -0.3058967 -0.045575917
-0.10584323 0.10248467 0.24696799 -0.03785986 -0.047113508 -0.012540042 0.11794381 -0.085562736
0.28895187 -0.21054828 -0.1889986 -0.01698488 0.14110395 0.20449963 -0.050123304 0.009934256
0.15668839 0.014448017 -0.064749755 -0.19507068 0.20352277 0.2995167 0.027439505 -0.29537204
0.22198871 0.054116163 0.07269195 0.045953512 -0.14800614 0.09911475 -0.28284445 0.42254505
00000000: 8cbc 3fbe e0d3 393d beb7 cc3d 906b b73c
00000010: 63f2 51be 2a86 0c3f 1ec1 db3e f685 863c
00000020: b5cc 80be f483 8f3d 5dc4 283e e201 e8be
00000030: 9b02 883e cdaf 65be 43ba 443d f103 12be
00000040: 7861 513d d096 733d 266a b2be 516e 88bb
00000050: d45d a2bd 9072 8cbd 4d98 ba3e f481 c3be
00000060: d616 e83e a742 983e 3fd0 243e 8e6c 7b3e
00000070: 8671 c7bd 8f54 823e 7e9e 9cbe d0ad 3abd
00000080: 56c4 d8bd 7ce3 d13d 2de5 7c3e f112 1bbd
00000090: 18fa 40bd c074 4dbc 868c f13d 843b afbd
000000a0: 80f1 933e f899 57be d988 41be e023 8bbc
000000b0: 8e7d 103e 5a68 513e 184e 4dbd 4ac3 223c
000000c0: ec72 203e 60b7 6c3c 859b 84bd 9cc0 47be
000000d0: 4668 503e 415a 993e d0c8 e03c 013b 97be
000000e0: 0251 633e e9a8 5d3d 84df 943d c039 3c3d
000000f0: ec8e 17be adfc ca3d fdd0 90be d357 d83e

fc2.weight f4 [64, 64]
-0.07924387 -0.013516709 0.0075275055 0.106493056 -0.059640035 0.0757494 0.029158916 -0.110344104
-0.10884996 -0.1427003 0.1146758 -0.065999 0.0062436014 0.038053613 0.07200231 0.10668427
0.101377144 -0.20119107 -0.040469073 0.08064043 -0.07141897 0.029650882 0.07758563 -0.11663527
0.09560165 -0.06480834 -0.08428144 0.09922136 -0.028271288 0.011381969 -0.08737907 0.10640511
0.11403522 -0.09142381 -0.27329233 -0.07841299 -0.09918842 0.0076148957 0.09123799 -0.035373002
0.10855685 0.107415155 0.038166776 -0.06557013 -0.013702482 -0.052624136 -0.100515366 -0.007194505
0.094054386 0.1113638 -0.014594307 0.028390378 -0.054115206 0.0943553 -0.05201356 -0.0868316
0.019249186 0.21130322 -0.11269894 0.11299594 0.044966385 -0.08372887 -0.026925936 0.10664192
-0.095904335 -0.036534652 0.022381239 -0.10951063 0.06852478 0.046006285 0.0663076 -0.12651661
0.124500126 -0.09246537 0.11739 -0.15631351 -0.11137125 0.076995514 -0.0016872432 0.0072111636
-0.0692198 -0.06624775 -0.06355313 0.06516476 0.0064960867 0.022107363 -0.006356556 0.017732816
0.104204044 0.033235505 -0.06704045 -0.05144334 -0.079975694 -0.08665235 -0.02013123 -0.022108197
-0.0062200665 -0.053429604 0.10891389 -0.10700902 0.00035527349 0.11236499 0.10607448 -0.07240778
0.012822563 0.014765337 -0.10526197 -0.04318686 0.03385675 -0.1014762 0.020624459 0.0365456
-0.04925877 0.073939286 -0.03731365 0.056714088 0.1237883 -0.038208544 0.06792602 -0.035753652
-0.018259123 0.0003996688 -0.000776574 -0.04722105 0.029298365 -0.015362877 0.079236224 -0.044188187
0.012535021 -0.04649879 -0.104681715 0.050583407 0.015994743 -0.050060466 -0.04226312 0.032690167
-0.022602111 0.081684485 0.007080391 0.047217086 0.05446203 -0.030670792 0.05408311 0.09224166
0.0057522953 0.024461612 0.0045419484 0.08654593 -0.052774414 -0.06644623 0.054469198 -0.108789265
0.0020040572 -0.057486385 0.0825042 -0.11637989 0.07579157 0.123669595 0.025292516 -0.0083283335
0.12304373 -0.05341904 -0.010016695 -0.05473812 -0.017255157 0.027167365 0.016695172 -0.02360937
-0.12498008 0.0064005107 -0.0037027448 0.018804595 0.09578128 0.12150118 -0.07416031 -0.0077943057
-0.050084203 -0.115205705 -0.09095739 0.117320135 0.07288264 0.06714389 0.0694679 -0.09930988
0.0131274015 0.116339326 -0.06976074 0.11119929 0.03285481 0.08794294 -0.053548455 0.057627216
-0.110810965 -0.00793694 0.035480544 0.037486807 0.10460101 0.115151934 0.12064041 0.12192105
0.08788276 -0.02809324 -0.0896033 -0.020807562 -0.014033064 -0.064444 0.04004307 0.043878406
0.02016899 -0.03481945 0.11134598 -0.6351304 -0.10961743 -0.09073509 -0.039916147 0.016571091
0.05571974 -0.12483999 -0.09192932 0.0766533 0.07995571 -0.113088876 0.04744816 -0.09760553
0.13755694 0.039223805 0.016288545 -0.12668104 -0.12033452 0.084512755 0.107705496 0.076584995
0.11583178 -0.105283916 0.1498729 -0.11801839 0.027925208 -0.101873696 -0.049649432 0.013481913
-0.0491475 -0.002070065 -0.10749976 -0.117859155 0.048420385 -0.052909806 -0.0760487 -0.049322784
-0.10219607 -0.22127569 0.07479654 0.06353027 0.016650438 -0.1285684 0.04158762 -0.0002654433
00000000: 9c4a a2bd 3075 5dbc 4ba9 f63b 0819 da3d
00000010: 1c49 74bd 8022 9b3d aede ee3c 17fc e1bd
00000020: baec debd 0720 12be 25db ea3d 7c2a 87bd
00000030: 2097 cc3b 1bde 1b3d f275 933d 487d da3d
00000040: d29e cf3d 0805 4ebe e6c2 25bd cf26 a53d
00000050: 1c44 92bd 68e6 f23c 37e5 9e3d 79de eebd
00000060: ccca c33d 3cba 84bd bf9b acbd 9234 cb3d
00000070: 3099 e7bc 707b 3a3c ccf3 b2bd ecea d93d
00000080: 4c8b e93d 683c bbbd f9ec 8bbe fd96 a0bd
00000090: 4c23 cbbd 6086 f93b fcda ba3d 48e3 10bd
000000a0: 0e53 de3d 7afc db3d c454 1c3d a249 86bd
000000b0: 6080 60bc 688c 57bd 00db cdbd e2bf ebbb
000000c0: 969f c03d b412 e43d f61c 6fbc f092 e83c
000000d0: e8a7 5dbd 5a3d c13d 2c0c 55bd c4d4 b1bd
000000e0: 78b0 9d3c df5f 583e b4ce e6bd 6a6a e73d
000000f0: ac2e 383d 0b7a abbd c893 dcbc 1467 da3d
00000100: 7e69 c4bd 5ca5 15bd dc58 b73c 1c47 e0bd
00000110: b856 8c3d 1671 3c3d 47cc 873d 928d 01be
00000120: ecf9 fe3d 7c5e bdbd 2b6a f03d a610 20be
00000130: 9c16 e4bd d3af 9d3d 7d26 ddba a04b ec3b
00000140: 1cc3 8dbd e6ac 87bd 2528 82bd 1a75 853d
00000150: 20dd d43b 801a b53c a84a d0bb 6944 913c
00000160: ee68 d53d f421 083d 814c 89bd 40b6 52bd
00000170: 4cca a3bd ca76 b1bd 40ea a4bc 401c b5bc
00000180: b3d1 cbbb 00d9 5abd 3f0e df3d 8c27 dbbd
00000190: 0044 ba39 9e1f e63d 943d d93d 884a 94bd
000001a0: ba15 523c 50ea 713c 9693 d7bd b4e4 30bd
000001b0: 60ad 0a3d c1d2 cfbd a0f4 a83c d7b0 153d
000001c0: 90c3 49bd 7b6d 973d 33d6 18bd 084d 683d
000001d0: b884 fd3d 9080 1cbd cc1c 8b3d 6c72 12bd
000001e0: 2894 95bc a38a d139 0093 4bba dc6a 41bd
000001f0: 2003 f03c 94b4 7bbc 9a46 a23d acfe 34bd
00000200: b05f 4d3c 8475 3ebd 5e63 d6bd 8c30 4f3d
00000210: 6807 833c 340c 4dbd 181c 2dbd 20e6 053d
00000220: 1028 b9bc 324a a73d a002 e83b b466 413d
00000230: 9413 5f3d 5041 fbbc 4086 5d3d 32e9 bc3d
00000240: c07d bc3b b863 c83c a0d4 943b fe3e b13d
00000250: fc29 58bd f614 88bd 181b 5f3d e8cc debd
00000260: 8056 033b d876 6bbd f6f7 a83d 9458 eebd
00000270: 9c38 9b3d 7c46 fd3d 4032 cf3c 9073 08bc
00000280: 5afe fb3d eccd 5abd 101d 24bc 1435 60bd
00000290: b05a 8dbc 188e de3c 50c4 883c 7068 c1bc
000002a0: 8ef5 ffbd 60bb d13b c0a9 72bb 180c 9a3c
000002b0: fa28 c43d 9cd5 f83d 5ce1 97bd 6067 ffbb
000002c0: 1825 4dbd f8f0 ebbd de47 babd 8a45 f03d
000002d0: 7e43 953d bc82 893d 3045 8e3d fa62 cbbd
000002e0: 5014 573c 5043 ee3d b8de 8ebd 74bc e33d
000002f0: c492 063d 6e1b b43d a055 5bbd 840a 6c3d
00000300: dcf0 e2bd f009 02bc 0c54 113d c48b 193d
00000310: 0e39 d63d c7d4 eb3d 5212 f73d beb1 f93d
00000320: e0fb b33d cb23 e6bc ef81 b7bd 9f74 aabc
00000330: f0ea 65bc 37fb 83bd 3404 243d d8b9 333d
00000340: 7039 a53c d79e 0ebd 5c09 e43d e897 22bf
00000350: 1a7f e0bd 52d3 b9bd 1d7f 23bd 19c0 873c
00000360: 623a 643d 1cac ffbd 7045 bcbd 68fc 9c3d
00000370: d2bf a33d 249b e7bd 0059 423d 68e5 c7bd
00000380: badb 0c3e 24a9 203d 8e6f 853c adb8 01be
00000390: f271 f6bd 0615 ad3d b394 dc3d 98d8 9c3d
000003a0: 3639 ed3d 189f d7bd 4878 193e a0b3 f1bd
000003b0: 68c3 e43c 28a3 d0bd 345d 4bbd 3ee3 5c3c
000003c0: e44e 49bd eda9 07bb d628 dcbd 2460 f1bd
000003d0: 7454 463d f4b7 58bd 6cbf 9bbd b006 4abd
000003e0: 2c4c d1bd 1896 62be ee2e 993d 281c 823d
000003f0: 8066 883c 6fa7 03be c857 2a3d 322b 8bb9

fc2.bias f4 [64]
0.71984005 0.28589773 0.053163335 0.062855 -0.10525434 -0.10917277 0.003818974 -0.53743947
0.05415623 -0.55775154 -0.22245148 -0.04433821 0.10549457 -0.057156876 0.6225414 0.045038246
0.18876092 0.7215286 0.5315264 -0.063623995 -0.38595793 0.121078074 0.7018572 -0.07375776
-0.05704203 -0.055140223 0.06345819 0.009908497 -0.0804304 -0.14809036 0.07971459 0.045958385
0.15499239 -0.12369503 0.1827211 0.05180314 0.2047536 -0.09701191 0.062055662 0.1097226
-0.12024537 -0.11305481 -0.05496755 0.12462936 -0.07094456 0.010687441 0.08414784 0.3016738
-0.13765272 0.17051703 -0.010591792 0.11667231 0.3880767 0.087861255 -0.00828141 -0.76743513
0.041832287 0.071293354 -0.18521705 -0.2073148 -0.14533037 0.04891938 0.12187165 -0.02272904
00000000: 7047 383f 3061 923e ccc1 593d 1fba 803d
00000010: 968f d7bd f995 dfbd c047 7a3b a295 09bf
00000020: ecd2 5d3d cec8 0ebf 52ca 63be fc9b 35bd
00000030: 8a0d d83d 541d 6abd e05e 1f3f 067a 383d
00000040: 8b4a 413e 19b6 383f 1d12 083f 4c4d 82bd
00000050: 479c c5be c8f7 f73d eaac 333f 4f0e 97bd
00000060: e7a4 69bd b7da 61bd 5ef6 813d 4057 223c
00000070: b2b8 a4bd 00a5 17be 6741 a33d dc3e 3c3d
00000080: 53b6 1e3e d253 fdbd 3d1b 3b3e 882f 543d
00000090: edaa 513e 2eae c6bd 142e 7e3d 3eb6 e03d
000000a0: 3443 f6bd 4889 e7bd a725 61bd ae3d ff3d
000000b0: 624b 91bd 601a 2f3c b455 ac3d fd74 9a3e
000000c0: d6f4 0cbe 049c 2e3e 3289 2dbc e4f1 ee3d
000000d0: fdb1 c63e 9af0 b33d c0ae 07bc a176 44bf
000000e0: 5558 2b3d 4002 923d 8aa9 3dbe 554a 54be
000000f0: 7cd1 14be b05f 483d d897 f93d 4032 babc

fc3.weight f4 [5, 64]
0.05266042 -0.10806923 -0.09835082 0.09635032 0.09514382 0.19349007 0.04309936 0.86788106
0.20064102 0.7069974 0.106349744 0.03382373 0.07125174 -0.08577065 0.20393449 0.043535415
0.09560955 -0.06523216 0.109035805 -0.09950942 0.19903366 0.08172481 0.053230505 0.028713685
-0.012007355 0.19886346 -0.11321685 -0.09119253 -0.10407065 0.09954219 -0.04177288 0.07445124
0.29306385 -0.049069807 0.08813164 -0.31268442 0.119344756 -0.050129026 0.054129053 0.014839524
-0.0998258 -0.07857649 -0.070863746 0.06549935 0.027085155 -0.0031429976 -0.06913847 -0.10837477
-0.31651533 -0.009270704 -0.11360649 -0.11922003 -0.5921265 -0.121517584 0.038965717 -0.009353517
0.13707861 -0.124436855 0.17552002 0.08715079 0.3372058 -0.030722097 0.060026824 -0.11855188
0.2757052 0.096671686 0.05254568 -0.0637793 -0.032087687 0.1085073 0.065494224 0.28129748
0.13053855 0.15594822 0.007401438 -0.0024882853 -0.06533659 -0.08676168 0.32384533 0.11101483
0.060646173 0.13443343 0.28997996 -0.07873519 0.061882917 -0.08585587 0.13881148 0.011484124
-0.012759653 0.16692032 -0.048858806 -0.068411365 -0.08885951 -0.042988565 0.10242321 -0.06077382
0.2128692 0.06273739 0.03318659 -0.3334835 0.15219155 -0.047942877 -0.04929784 -0.010523819
-0.017811522 0.022844195 0.045827657 -0.09638077 0.11359522 -0.11884415 0.047168978 -0.04196533
-0.25796136 0.16899453 -0.10786576 0.008536994 -0.2514296 0.11174926 -0.105676904 -0.43549263
0.1775144 -0.12244113 0.123568505 -0.0043733376 0.24340115 -0.11307305 0.06150043 -0.027729899
0.2647058 0.013372864 -0.017817453 0.0007826832 -0.11145242 0.09026437 0.0041512996 0.36776716
0.22655796 0.15731494 -0.014202745 -0.016716108 -0.09497446 -0.0009876043 0.3057315 -0.09660754
0.06519326 0.14648569 0.350896 0.10309869 0.14522058 -0.043629885 0.18075334 -0.058512766
-0.07365717 0.11919403 0.062296838 -0.07472059 0.043995544 -0.02871554 -0.0005162963 -0.027677253
0.17076807 -0.08782645 0.15664119 -0.34494838 0.1570382 0.02086392 -0.09109064 -0.08950516
-0.06514545 0.05985965 -0.0807057 -0.057184115 0.022693694 -0.08666223 -0.056744855 0.058360904
-0.27551794 0.16875549 0.09615519 0.028010517 -0.33249095 -0.11012374 0.062480688 -0.3568937
0.010019104 -0.053537056 0.031113489 0.14689435 0.24936993 -0.122568056 0.10690208 0.080963165
0.09927172 0.08106078 0.112881765 0.14239228 0.114943415 0.14355583 0.032723635 -0.45943576
0.10894115 -0.41628793 0.08763236 0.003621325 0.036347553 -0.080518454 0.10141036 0.1016596
0.07022595 0.09360055 0.14189588 -0.053528264 0.062388655 -0.013116941 0.15789926 -0.028336799
0.014133216 0.044412572 0.048618615 -0.0880035 0.021216676 -0.060570784 -0.057308123 -0.080000654
0.1733117 0.01475352 0.09583948 -0.17957668 0.14751007 0.12245001 0.031587668 0.10522317
-0.006177753 -0.045953974 0.024301156 0.082191974 -0.019318953 -0.095978975 0.046208557 -0.006723781
-0.2460058 0.04803704 -0.0054852595 -0.071453094 -0.14231321 0.11772004 0.08130595 -0.78723055
0.06812645 -0.0027043372 0.11076951 -0.03318068 0.2067422 0.041648775 0.06361288 0.013070375
00000000: 74b2 573d 6753 ddbd 286c c9bd 5153 c53d
00000010: c3da c23d 4322 463e f488 303d 742d 5e3f
00000020: d774 4d3e c8fd 343f e5cd d93d c08a 0a3d
00000030: 6fec 913d 86a8 afbd 34d4 503e 3152 323d
00000040: f1ce c33d 7098 85bd 2a4e df3d 98cb cbbd
00000050: 7bcf 4b3e 565f a73d 3b08 5a3d f638 eb3c
00000060: 7fba 44bc dda2 4b3e 3cde e7bd 26c3 babd
00000070: fe22 d5bd c7dc cb3d 0a1a 2bbd e479 983d
00000080: 770c 963e 6cfd 48bd 5c7e b43d 2c18 a0be
00000090: 066b f43d 1854 4dbd 6db6 5d3d 7a21 733c
000000a0: 7871 ccbd b6ec a0bd 0321 91bd 8624 863d
000000b0: b0e1 dd3c c0fa 4dbb 7898 8dbd 97f3 ddbd
000000c0: 4c0e a2be 27e4 17bc 85aa e8bd a229 f4bd
000000d0: 9a95 17bf 36de f8bd 849a 1f3d 7e3f 19bc
000000e0: 565e 0c3e c0d8 febd 85bb 333e 1d7c b23d
000000f0: 3da6 ac3e e8ac fbbc b0de 753d 54cb f2bd
00000100: 3b29 8d3e cefb c53d 243a 573d b99e 82bd
00000110: 616e 03bd 1339 de3d d621 863d 3906 903e
00000120: e6ab 053e e4b0 1f3e c387 f23b 8012 23bb
00000130: 31cf 85bd 1cb0 b1bd 0ecf a53e be5b e33d
00000140: 1f68 783d eba8 093e 4178 943e ea3f a1bd
00000150: f178 7d3d 34d5 afbd 9924 0e3e e827 3c3c
00000160: dd0d 51bc 29ed 2a3e 2c20 48bd 421b 8cbd
00000170: fafb b5bd c714 30bd 43c3 d13d f8ed 78bd
00000180: 62fa 593e 767c 803d a9ee 073d 59be aabe
00000190: 1ad8 1b3e c05f 44bd 88ec 49bd 196c 2cbc
000001a0: 78e9 91bc c023 bb3c c8b5 3b3d 4863 c5bd
000001b0: 9ca4 e83d 9064 f3bd 4234 413d d6e3 2bbd
000001c0: 8313 84be e70c 2d3e b9e8 dcbd c0de 0b3c
000001d0: 61bb 80be ccdc e43d 226d d8bd e4f8 debe
000001e0: 56c6 353e 6ac2 fabd 7c11 fd3d 374e 8fbb
000001f0: 273e 793e d892 e7bd e0e7 7b3d d029 e3bc
00000200: 8587 873e db19 5b3c e8f5 91bc fb2c 4d3a
00000210: 2b41 e4bd 87dc b83d a007 883b fa4b bc3e
00000220: cffe 673e 2b17 213e a1b2 68bc 38f0 88bc
00000230: f881 c2bd 8072 81ba d788 9c3e 2dda c5bd
00000240: 0b84 853d 5800 163e a4a8 b33e 6825 d33d
00000250: b4b4 143e 40b5 32bd 6717 393e 15ab 6fbd
00000260: 92d9 96bd 001c f43d f82a 7f3d 1c07 99bd
00000270: ac34 343d da3c ebbc 0f58 07ba 68bb e2bc
00000280: d3dd 2e3e 5bde b3bd 8c66 203e 139d b0be
00000290: 9fce 203e d0ea aa3c bb8d babd 7b4e b7bd
000002a0: fa6a 85bd 642f 753d 0849 a5bd e439 6abd
000002b0: 20e8 b93c f87b b1bd 4b6d 68bd d80b 6f3d
000002c0: b010 8dbe 3dce 2c3e 03ed c43d 5076 e53c
000002d0: 413c aabe 8e88 e1bd c0eb 7f3d c5ba b6be
000002e0: 2b27 243c ac49 5bbd b7e1 fe3c 796b 163e
000002f0: d55a 7f3e f604 fbbd 7aef da3d 04d0 a53d
00000300: f94e cb3d 3203 a63d 8e2e e73d 48cf 113e
00000310: 7467 eb3d 4d00 133e 3809 063d 2a3b ebbe
00000320: 8a1c df3d b123 d5be 9878 b33d c053 6d3b
00000330: 2ce1 143d dce6 a4bd 3cb0 cf3d e932 d03d
00000340: 9fd2 8f3d a5b1 bf3d 274d 113e 7440 5bbd
00000350: 3f8b 7f3d 70e8 56bc 58b0 213e 9322 e8bc
00000360: 018f 673c f5e9 353d 5024 473d 2e3b b4bd
00000370: 98ce ad3c 1219 78bd ecbb 6abd 62d7 a3bd
00000380: 9f78 313e bfb8 713c 7d47 c43d f3e2 37be
00000390: e10c 173e 12c7 fa3d 1262 013d 3f7f d73d
000003a0: c06e cabb 3c3a 3cbd 3813 c73c 4454 a83d
000003b0: c842 9ebc a090 c4bd 2f45 3d3d 2a53 dcbb
000003c0: f2e8 7bbe 7dc2 443d b1bd b3bb 0056 92bd
000003d0: 8eba 11be 3417 f13d bc83 a63d f187 49bf
000003e0: e185 8b3d 403b 31bb 20db e23d 77e8 07bd
000003f0: 3ab4 533e e897 2a3d 7847 823d 2025 563c

fc3.bias f4 [5]
-0.28917137 0.32465678 0.28035018 0.3955308 0.46368635
00000000: 450e 94be 6a39 a63e 0f8a 8f3e 0383 ca3e
00000010: 4c68 ed3e
